Model: "sequential"
_________________________________________________________________
Layer (type)                 Output Shape              Param #
=================================================================
conv2d (Conv2D)              (None, 26, 26, 32)        320
_________________________________________________________________
max_pooling2d (MaxPooling2D) (None, 13, 13, 32)        0
_________________________________________________________________
flatten (Flatten)            (None, 5408)              0
_________________________________________________________________
dense (Dense)                (None, 128)               692352
_________________________________________________________________
dense_1 (Dense)              (None, 10)                1290
=================================================================
Total params: 693,962
Trainable params: 693,962
Non-trainable params: 0
_________________________________________________________________
2019-08-07 00:39:15.143585: I tensorflow/core/platform/cpu_feature_guard.cc:142] Your CPU supports instructions that this TensorFlow binary was not compiled to use: AVX2
Epoch 1/20
60000/60000 [==============================] - 28s 460us/sample - loss: 0.1565 - acc: 0.9536
…
